custom_gym/trained_models/ppo/CustomEnv-v0.pt (torch, 47921 bytes, 12 tensors)

weight f4 [64, 10]
0	0x3e13ce57	0.14434181
1	0x3cd453bf	0.02591884
2	0x3da4db74	0.0804967
3	0xbeea9372	-0.45815617
4	0xbe5d22e3	-0.2159534
5	0x3c918666	0.017764281
6	0xbe3f4e99	-0.18682326
7	0x3c3442e7	0.011002279
8	0xbdbf6c0b	-0.093467794
9	0x3d3cced3	0.04609568
10	0x3e81dea1	0.25365165
11	0x3beb1630	0.007174276
12	0x3e828f19	0.254998
13	0x3cc98984	0.024601705
14	0xbceeb6fd	-0.02913999
15	0x3e35138b	0.17683236
16	0xbeb1de75	-0.34740034
17	0xbdbc6b28	-0.09200126
18	0x3e1ef59c	0.1552338
19	0x3d2777a7	0.040885594
20	0xbe5efa21	-0.21775104
21	0x3e0fe647	0.14052688
22	0x3c6f23e0	0.014595956
23	0xbc8e892e	-0.017399397
24	0xbe092c21	-0.1339574
25	0x3e649014	0.22320586
26	0xbd860011	-0.065429814
27	0xbc110b50	-0.008852795
28	0x3dbddd3f	0.09270715
29	0x3e544e18	0.20732915
30	0xbe476af1	-0.19474389
31	0xbe2d504e	-0.16925165
32	0x3e8c9183	0.27454767
33	0x3da8626d	0.08221898
34	0x3e2d6f4b	0.16936986
35	0x3d8a5142	0.0675378
36	0x3bfb3837	0.0076666134
37	0xbd9371de	-0.07199453
38	0x3e142a17	0.14469181
39	0x3e4a7951	0.19772841
40	0x3dbcf605	0.09226612
41	0xbd94819d	-0.07251284
42	0xbe159693	-0.14608221
43	0xbe0c5026	-0.13702449
44	0xbd08ac00	-0.033367157
45	0x3dde6fc0	0.10861158
46	0xbe7bff72	-0.24609163
47	0xbe59eebb	-0.21282475
48	0x3e2ed277	0.17072473
49	0xbdc5f93b	-0.096666776
50	0x3dbf60fd	0.09344671
51	0x3ea1eb4f	0.3162484
52	0xbe991d12	-0.2990499
53	0xbeb53dd0	-0.35398722
54	0x3e29f9c8	0.1659919
55	0xbdd71cac	-0.105035156
56	0x3e893b3a	0.26803
57	0x3da80b21	0.08205248
58	0x3d881a48	0.06645638
59	0x3e7a38fb	0.24435799
60	0x3e532af9	0.20621862
61	0xbe30511c	-0.17218441
62	0x3e44c0ed	0.1921422
63	0xbd21092e	-0.039315395
64	0xbe25afe4	-0.16180378
65	0x3d745ef4	0.059660867
66	0x3c5323a2	0.0128869135
67	0xbbd8af31	-0.0066126813
68	0xbd10479c	-0.035224542
69	0xbe9cb033	-0.3060318
70	0xbec70c3a	-0.38876516
71	0xbe44bcc4	-0.19212633
72	0xbdaf2fa6	-0.0855401
73	0x3e5b0483	0.2138844
74	0xbd2de605	-0.04245569
75	0x3e3a8f46	0.18218717
76	0x3c9308ff	0.017948626
77	0xbe514d53	-0.20439653
78	0x3e19af8c	0.15008372
79	0xbe27d56b	-0.16390006
80	0xbd8bb194	-0.0682098
81	0x3b9ec2ed	0.0048450143
82	0x3d55149c	0.052021608
83	0xbd8354d5	-0.06412665
84	0x3e96e9b7	0.29475185
85	0xbdf40eb8	-0.1191687
86	0xbbb9cc54	-0.0056701098
87	0x3d883254	0.06650224
88	0x3c49643e	0.012291966
89	0xbd31b34d	-0.043383885
90	0xbc73d4d1	-0.014882282
91	0xbd85b7ef	-0.06529223
92	0xbe95769a	-0.29192048
93	0x3e253037	0.16131674
94	0xbcdeea61	-0.02721137
95	0x3e48ffb8	0.19628799
96	0x3e742a65	0.23844297
97	0xbd370079	-0.044678185
98	0xbe7d0d2f	-0.2471206
99	0x3e301286	0.17194566
100	0xbd2bf85e	-0.04198491
101	0xbe3d748a	-0.18501487
102	0xbe04b90a	-0.12961212
103	0x3acbed97	0.0015558478
104	0x3d671413	0.05641563
105	0x3ef80a94	0.4844557
106	0xbe1af66b	-0.15133063
107	0x3efc5fc3	0.4929181
108	0xbe87110b	-0.2638019
109	0x3e08346e	0.1330125
110	0x3e11018a	0.14160743
111	0xbeb17fd4	-0.34667838
112	0xbe6d0709	-0.23147215
113	0xbe2ba7ef	-0.1676328
114	0xbe602f7b	-0.21893112
115	0xbc745203	-0.014912131
116	0x3e48d26d	0.19611521
117	0xbe9679a4	-0.2938968
118	0xbcc8661f	-0.024462758
119	0x3ce75e5c	0.028243236
120	0xbdcb6412	-0.09931196
121	0x3ef40f1f	0.47667786
122	0x3db06cb8	0.086144865
123	0x3e2037ad	0.15646239
124	0x3ebddb04	0.37081158
125	0x3e2f481a	0.17117348
126	0xbd5ad954	-0.053429917
127	0xbdf28349	-0.11841447
128	0x3d8e9e48	0.069637835
129	0x3ddb72f0	0.10715282
130	0x3e61b4f4	0.22041684
131	0xbe05177d	-0.12997241
132	0xbdbe10a1	-0.092805155
133	0x3ced9293	0.029000556
134	0x3e6ca156	0.2310842
135	0xbe90d508	-0.2828753
136	0xbe3aa1f3	-0.18225841
137	0x3ce30361	0.027711572
138	0x3d8583ff	0.06519317
139	0x3dd8c749	0.105848856
140	0xbea3ede1	-0.32017425
141	0xbca16686	-0.019702207
142	0x3d4bcd4e	0.04975634
143	0xbc0f3494	-0.008740563
144	0x3df1a91c	0.11799833
145	0x3e4b00db	0.19824545
146	0x3a13b84a	0.0005635066
147	0x3e182519	0.14857902
148	0x3cd0d16f	0.02549049
149	0xbe3a9fdd	-0.18225046
150	0x3c97c60d	0.018527055
151	0x3e1bcc4e	0.15214655
152	0x3d611f9c	0.054961786
153	0x3e6fa76c	0.2340371
154	0x3c1aa982	0.009439828
155	0x3c510e89	0.012759813
156	0xbd9348d5	-0.07191626
157	0x3dfc5f23	0.123228334
158	0x3d991e66	0.07476501
159	0xbe02a57b	-0.12758438
160	0xbde3ee53	-0.11129441
161	0xbe9165dd	-0.28398028
162	0xbdf077ef	-0.117416255
163	0xbdbc3a98	-0.09190863
164	0x3e517dbf	0.20458125
165	0xbe54f6b2	-0.20797232
166	0x3cb9a41a	0.022661258
167	0x3e0f629a	0.14002457
168	0xbdfed166	-0.12442283
169	0xbd7877cb	-0.06066112
170	0x3c1a0ed5	0.00940295
171	0x3d7c6c30	0.061626613
172	0x3e0f1ecd	0.13976593
173	0xbdf659b5	-0.12028829
174	0x3d6ec1a7	0.05829015
175	0x3dca9cd8	0.09893197
176	0xbe20aa81	-0.15690042
177	0xbcb831a3	-0.022484606
178	0x3d5ae526	0.05344119
179	0x3e775062	0.24151757
180	0x3d0f42b2	0.034975715
181	0xbcaa0842	-0.02075589
182	0xbdceed12	-0.10103811
183	0x3d18aba7	0.037273075
184	0xbb975159	-0.0046178517
185	0xbda16c67	-0.07882004
186	0xbe820102	-0.25391394
187	0xbe6ca106	-0.231083
188	0xbec38eaa	-0.38194782
189	0xbe00c92e	-0.12576744
190	0x3e6708b8	0.2256192
191	0x3eb6ddf4	0.35716212
192	0x3d7d8e2d	0.061903168
193	0x3ec3af46	0.3821966
194	0xbe3f8c65	-0.187059
195	0xbe9003fa	-0.28128034
196	0x3d5e1cea	0.054226793
197	0x3e325745	0.17416103
198	0xbe087a26	-0.13327846
199	0x3e280435	0.16407855
200	0xbd91358d	-0.07090292
201	0x3e527cb7	0.20555387
202	0x3cd8f549	0.026484149
203	0x3d42f2ba	0.047594763
204	0x3b93f51d	0.0045153038
205	0xbe7b8cfb	-0.24565499
206	0x3e1ae165	0.15125044
207	0xbd4fd45a	-0.050739624
208	0xbe3c52b9	-0.18390931
209	0xbe0cd67e	-0.13753697
210	0x3e494339	0.1965455
211	0x3e88a345	0.26687065
212	0xbed0fccb	-0.40817866
213	0x3e1169a7	0.1420046
214	0xbda0827d	-0.07837389
215	0x3da0fb57	0.07860439
216	0xbe04519a	-0.12921754
217	0xbeba7905	-0.36420456
218	0x3d955603	0.07291796
219	0xbe9eeefe	-0.31041712
220	0xbe2e459d	-0.17018743
221	0x3ce39afe	0.027783867
222	0xbe2c8b77	-0.16850077
223	0xbe70e9a9	-0.23526634
224	0xbe7f7852	-0.24948242
225	0xbea5a3bb	-0.3235148
226	0xbe7d12d8	-0.2471422
227	0xbd3fffb2	-0.04687471
228	0x3d3bfbdc	0.04589449
229	0x3b997ff7	0.004684444
230	0x3d72685a	0.05918155
231	0x3d679640	0.056539774
232	0xbe32d5fa	-0.17464438
233	0x3e1b391d	0.15158506
234	0xbc4c885c	-0.0124836825
235	0xbd898d37	-0.06716388
236	0x3e3dee63	0.18547969
237	0xbe97ba59	-0.2963436
238	0xbcee2ca2	-0.029074017
239	0xbe9b2675	-0.30302778
240	0xbf0ed9ea	-0.5580126
241	0x3e02e630	0.12783122
242	0xbc48a3cc	-0.0122460835
243	0xbe89dd4a	-0.26926643
244	0x3e058d52	0.1304219
245	0x3d77204b	0.06033353
246	0xbe821e62	-0.25413805
247	0xbd4fa808	-0.050697356
248	0xbd80f0b6	-0.06295912
249	0xbe0bc887	-0.13650714
250	0x3d3c34fb	0.045948964
251	0x3debde47	0.115170054
252	0xbd01d20d	-0.03169446
253	0xbe6c0901	-0.2305031
254	0xbead329b	-0.3382767
255	0x3dfd8f03	0.12380793

bias f4 [64]
0	0x38a925ae	8.065566e-05
1	0x3b02d7f7	0.001996515
2	0x3b3ec6c0	0.0029110163
3	0x3b4eada6	0.0031536608
4	0x3a096c0a	0.00052422343
5	0xbb2963cf	-0.0025846844
6	0xbb4252cd	-0.0029651404
7	0xbafa9bb5	-0.0019119891
8	0x3ae9b1e4	0.0017829505
9	0x3af98267	0.0019036055
10	0xbad73b66	-0.00164209
11	0xbb036199	-0.0020047186
12	0xbb376372	-0.0027982858
13	0xbb5827d1	-0.0032982717
14	0xbb10fa4c	-0.0022121845
15	0x3b069db6	0.002054078
16	0x3b2c606a	0.0026302584
17	0xbb24bd6a	-0.0025137314
18	0xbb1de4a5	-0.0024092582
19	0xbb1c9aa8	-0.0023895893
20	0xbb449c35	-0.0030000333
21	0xbaea5e46	-0.0017880879
22	0xbb50a9c7	-0.0031839476
23	0xbaa77740	-0.0012776628
24	0xbb631fdc	-0.003465644
25	0x3b4bc05d	0.003109
26	0x3aab7dd2	0.0013083762
27	0x3b41cdc1	0.0029572102
28	0x3b45d64f	0.0030187552
29	0xbb36d3ed	-0.0027897314
30	0xbb093a78	-0.002093939
31	0x3b5a9141	0.0033350738
32	0x3b267c57	0.0025403702
33	0xbb284e63	-0.0025681488
34	0xbb59e56f	-0.0033248325
35	0xbaf7969d	-0.0018889491
36	0x3b092cab	0.0020931165
37	0xbb6a6e0b	-0.0035771157
38	0xbab8e601	-0.0014106632
39	0x3b31899e	0.0027090083
40	0x3b1e1ac0	0.002412483
41	0xbb2818d0	-0.0025649555
42	0x3b06fb7d	0.0020596676
43	0x3b1e7206	0.002417685
44	0x3b10a7a4	0.0022072578
45	0xbaf4cc22	-0.0018676559
46	0x3b2c4fde	0.0026292722
47	0xbb53f307	-0.00323409
48	0xbb0984f5	-0.002098379
49	0x3b450e00	0.003006816
50	0x3a55e4b5	0.0008159385
51	0xbb4ad7b5	-0.0030951325
52	0xbb028bfe	-0.0019919868
53	0x3b3f79c9	0.0029216877
54	0xbb59ceb5	-0.003323478
55	0x3939b555	0.00017710526
56	0x3b206cf2	0.0024479
57	0xbb40a756	-0.0029396615
58	0x3b5a2fa2	0.0033292552
59	0x3b55342f	0.0032532325
60	0xb9e9c6cd	-0.0004458934
61	0xbb3937b4	-0.0028261961
62	0x3af4c495	0.0018674309
63	0x3b53e1e6	0.003233069

weight f4 [64, 64]
0	0x3dcfcad8	0.10146111
1	0xbe76283b	-0.24038784
2	0xbd83876f	-0.06422316
3	0x3d749fac	0.059722587
4	0xbe8f7dd6	-0.28025693
5	0xbe6eacd2	-0.23308113
6	0x3d991e75	0.07476512
7	0xbd1cacbd	-0.038250674
8	0x3e6c5346	0.23078641
9	0xbe9f20aa	-0.31079608
10	0x3df78da7	0.12087565
11	0x3e006ae0	0.1254077
12	0x3c2d6d5a	0.0105851535
13	0xbd37bf0f	-0.044859942
14	0x3d94e1c2	0.072696224
15	0xbe2e801c	-0.17041057
16	0xbe02bf27	-0.12768231
17	0x3da49c27	0.08037596
18	0x3da73ee8	0.08166295
19	0x3df6554a	0.12027986
20	0xbca62845	-0.020282874
21	0xbd3a098f	-0.045419272
22	0xbc8bd530	-0.01706943
23	0xbe3e128c	-0.18561763
24	0x3ef9a22d	0.48756543
25	0xbe862e92	-0.26207405
26	0x3c8efc33	0.017454242
27	0x3e5b4084	0.2141133
28	0x3e4d6f60	0.20062017
29	0xbe88f8b1	-0.26752236
30	0xbe10aa3e	-0.14127442
31	0x3e21a238	0.15784538
32	0xbce07e4c	-0.027403973
33	0xbe668c7d	-0.2251453
34	0xbe08628b	-0.13318841
35	0xbba88a7c	-0.0051434617
36	0xbe4c6c83	-0.19963269
37	0xbe77bfa6	-0.24194202
38	0xbe667eec	-0.22509354
39	0xbe852e10	-0.26011705
40	0x3df6a9ec	0.12044129
41	0x3e870229	0.26368836
42	0x3d834c64	0.06411055
43	0x3e89551c	0.26822746
44	0xbdc8dde0	-0.09807944
45	0x3e315f6d	0.17321558
46	0xbe133f77	-0.14379679
47	0x3ea4fa1e	0.32222074
48	0xbe82c348	-0.25539613
49	0x3dd17dbf	0.10229062
50	0xbdbbad84	-0.09163955
51	0xbc9729c9	-0.018452542
52	0x3e27c556	0.16383871
53	0x3e807b39	0.2509401
54	0xbde0e651	-0.10981429
55	0x3e15195b	0.14560454
56	0x3d097260	0.033556342
57	0xbe3eb41b	-0.18623392
58	0xbe0032a2	-0.12519315
59	0x3c138aa6	0.009005224
60	0xbe24afb4	-0.1608265
61	0xbe38e33a	-0.1805543
62	0x3e6366f4	0.22207242
63	0xbd06f473	-0.03294797
64	0xbcd9091f	-0.026493607
65	0xbd1f701d	-0.03892528
66	0x3e2d0741	0.16897298
67	0x3e88a383	0.2668725
68	0x3e146f3e	0.1449556
69	0x3c668233	0.014069128
70	0x3e88ade3	0.26695165
71	0x3dfae7ba	0.122512296
72	0xbe0dc93d	-0.13846298
73	0x3e1ed5cc	0.15511245
74	0xbe4b8b35	-0.19877322
75	0x3e424e1c	0.18975109
76	0xbe28dd11	-0.1649058
77	0xbde925c0	-0.11384153
78	0x3d9da558	0.076975524
79	0x3e8ae6a7	0.271291
80	0xbd481bff	-0.048854824
81	0xbcdcae5d	-0.026938612
82	0xbddf3e25	-0.10900525
83	0x3e23455e	0.1594443
84	0x3d917ae1	0.071035154
85	0x3e0a329c	0.13495868
86	0xbd9e6f0e	-0.07736026
87	0xbe8ebbb9	-0.27877596
88	0xbe744ea9	-0.23858131
89	0x3b3f118a	0.0029154741
90	0xbe5339b7	-0.20627485
91	0xbdf464ab	-0.119332634
92	0xbeeb4111	-0.4594808
93	0x3e899a4b	0.2687553
94	0xbee702b4	-0.4511925
95	0xbcec29f8	-0.028828606
96	0xbe045518	-0.12923086
97	0xbe10f49a	-0.14155808
98	0x3cf61bbc	0.030042522
99	0xbd68bbdb	-0.056819778
100	0xbc05b62e	-0.008161111
101	0x3ddbeee7	0.107389264
102	0x3d86de26	0.0658534
103	0xbeaa814a	-0.33301765
104	0x3d3706b7	0.04468414
105	0x3ee683a8	0.4502232
106	0x3d15b7ca	0.036552228
107	0x3e81bee5	0.25340953
108	0xbe3821ab	-0.17981593
109	0xbda127a2	-0.078688875
110	0xbeab6655	-0.3347651
111	0x3e968088	0.29394937
112	0x3dc7f5fb	0.09763714
113	0x3dd6c8c4	0.10487512
114	0x3d909910	0.07060444
115	0xbd1dbea7	-0.0385119
116	0xbe06540d	-0.13118
117	0xbd3efab5	-0.04662581
118	0x3d44563f	0.047933813
119	0xbcb131ef	-0.021630256
120	0x3df31ce1	0.118707426
121	0x3e2cab02	0.1686211
122	0x3d1d7ca9	0.038448963
123	0x3df8303f	0.12118577
124	0x3d7c28fa	0.061562516
125	0xbdcd170c	-0.100141615
126	0xbd592290	-0.053011477
127	0x3d6bf9c2	0.057611234
128	0x3e9d3940	0.3070774
129	0xbc68661c	-0.014184501
130	0x3de4c111	0.11169637
131	0x3e3f8a2f	0.18705057
132	0xbd435d06	-0.047696136
133	0x3ec8a71f	0.39190003
134	0xbda6049b	-0.08106347
135	0x3e6ed229	0.23322357
136	0xbcacea5a	-0.021107841
137	0xbe703d4b	-0.23460881
138	0xbe0dd45b	-0.13850538
139	0x3dc3d2c8	0.09561688
140	0x3e0b4324	0.13599831
141	0x3dd74f86	0.10513215
142	0xbc240dfc	-0.0100131
143	0xbd0eb4a7	-0.034840252
144	0x3e7918b2	0.24325827
145	0x3e996f76	0.2996785
146	0xbea444bd	-0.32083693
147	0x3d01683d	0.03159355
148	0xbc6b5759	-0.014364087
149	0x3e694cb2	0.22783163
150	0xbdc39267	-0.095494084
151	0x3e8af65a	0.27141076
152	0x3c5c1537	0.013432792
153	0x3e800e2f	0.2501082
154	0x3d22efae	0.039779358
155	0x3e5dfed9	0.21679248
156	0xbc80ec7c	-0.015737765
157	0xbda013d8	-0.07816285
158	0x3d25a424	0.04043974
159	0x3d085d1c	0.03329192
160	0xbe111d81	-0.14171411
161	0x3ba47696	0.0050190194
162	0x3f001540	0.50032425
163	0x3d96e35a	0.073675826
164	0x3d34f76d	0.044181276
165	0x3d35e6ef	0.04440969
166	0x3eafebcf	0.34359595
167	0xbd769f5e	-0.06021058
168	0xbd94dfe6	-0.07269268
169	0xbd46aece	-0.04850655
170	0x3dfcf717	0.12351816
171	0x3e817dec	0.25291383
172	0x3e03c74a	0.12868991
173	0xbbe9a3cf	-0.007130123
174	0xbd795e21	-0.060880784
175	0xbc9cf902	-0.019161705
176	0xbe686104	-0.22693259
177	0x3e1c5743	0.15267663
178	0xbe0e29b0	-0.1388309
179	0x3d8f0d31	0.06984938
180	0x3e19a237	0.15003286
181	0x3d50f0df	0.051010963
182	0xbec27617	-0.3798072
183	0xbd9dd44b	-0.07706507
184	0xbca400b3	-0.020019865
185	0x3e2b6b5b	0.16740172
186	0x3e429392	0.19001606
187	0x3d962351	0.07330955
188	0xbe4a2746	-0.19741544
189	0x3e11dd6f	0.14244626
190	0x3ea70cb3	0.32626876
191	0x3d070503	0.032963764
192	0xbeb992df	-0.36244866
193	0x3e0d5d88	0.1380521
194	0xbdb7d650	-0.08976424
195	0x3b2160c7	0.0024624334
196	0x3e86ada3	0.2630435
197	0xbd91fb11	-0.07127965
198	0xbde13a5a	-0.10997458
199	0xbe522f85	-0.2052594
200	0x3e27dad9	0.16392078
201	0xbacb4897	-0.0015509304
202	0x3e7ef92b	0.24899738
203	0x3dd50625	0.104015626
204	0xbe3fef85	-0.18743713
205	0xbbd7b762	-0.00658314
206	0x3e8047b0	0.25054693
207	0xbe33a747	-0.1754428
208	0xbdd96f5d	-0.10616944
209	0xbd6845d3	-0.056707215
210	0xbdea30ac	-0.11435065
211	0xbdb72e1b	-0.08944341
212	0xbd8353c2	-0.0641246
213	0xbe14d8b7	-0.14535795
214	0xbe3766ef	-0.1791036
215	0x3dfc5bcd	0.12322197
216	0xbcecfc88	-0.02892901
217	0x3d809021	0.062774904
218	0xbd48673d	-0.04892658
219	0xbe122933	-0.14273529
220	0xbe74dc2a	-0.23912111
221	0xbd087ce0	-0.033322215
222	0x3be60165	0.007019209
223	0x3e7d46e2	0.24734071
224	0x3e209706	0.15682611
225	0x3e9b73ad	0.3036169
226	0x3e9697e0	0.29412746
227	0xbe12dd3a	-0.14342204
228	0x3cbe7d4e	0.02325311
229	0xbdddd6fb	-0.1083202
230	0xbe9db283	-0.30800256
231	0xbeb7bf14	-0.3588797
232	0xbe29e6a2	-0.16591886
233	0xbb27ec52	-0.0025623036
234	0x3db53e52	0.08849777
235	0xbd839993	-0.06425776
236	0x3e985cfe	0.29758447
237	0x3db932a0	0.09042859
238	0xbdbdde1c	-0.092708796
239	0x3e0732d8	0.13202989
240	0x3e9cb1e5	0.30604473
241	0x3d30f465	0.043201823
242	0xbe48f5f4	-0.19625074
243	0x3e13a243	0.14417367
244	0xbcaad62d	-0.02085408
245	0x3ea1dafb	0.3161238
246	0x3acf6aa8	0.0015824633
247	0xbda01465	-0.0781639
248	0x3d57e357	0.052707043
249	0x3e34e081	0.17663766
250	0xbc80b6fa	-0.01571225
251	0xbe92131e	-0.2853021
252	0xbde57831	-0.11204565
253	0x3ea00c70	0.3125949
254	0x3e9afdcc	0.30271757
255	0x3e35fd85	0.17772491

bias f4 [64]
0	0x3abaa769	0.0014240566
1	0xbb1d5cc2	-0.0024011587
2	0x3b3c39c5	0.0028720957
3	0xba05a03c	-0.0005097424
4	0xba60a7bd	-0.0008569917
5	0x3b0c5b9c	0.0021416908
6	0xbb310826	-0.0027012913
7	0xb8e62c5a	-0.00010975516
8	0x3a974f71	0.0011544061
9	0xbac0690f	-0.0014679747
10	0x39ebe649	0.0004499427
11	0xbaf93dee	-0.0019015649
12	0x3ab118d6	0.001351143
13	0xba6d412d	-0.00090505445
14	0x3afb7326	0.0019184097
15	0x3a2f78ad	0.00066937023
16	0x3b48d7dd	0.0030646243
17	0xbb03b772	-0.0020098356
18	0xbb49436b	-0.003071035
19	0xbb3e76ba	-0.0029062466
20	0x3b4901b1	0.0030671174
21	0xbb381098	-0.0028086063
22	0xbaf4d3c7	-0.0018678837
23	0x3afa97cd	0.0019118726
24	0x3b5c9954	0.0033660727
25	0x3b3db7c9	0.0028948656
26	0xbb40d195	-0.0029421796
27	0xbb3a1ddc	-0.0028399145
28	0x3b3f6793	0.0029206022
29	0xbb4284a9	-0.0029681122
30	0xbb172783	-0.0023064322
31	0x3ae415ec	0.0017401553
32	0xbb321363	-0.00271722
33	0xbad3d54c	-0.001616159
34	0xbb4e64f8	-0.0031493288
35	0xbb40cdbd	-0.0029419505
36	0x3b5aa087	0.0033359842
37	0x39e211f8	0.00043119467
38	0xbafcd2a5	-0.0019288851
39	0xba4e4f06	-0.0007870052
40	0x3aa49e25	0.0012559338
41	0xbaccd939	-0.0015628702
42	0x3aa1d4ab	0.0012346705
43	0xbb3ecc06	-0.0029113307
44	0xbb199dd3	-0.0023440018
45	0x3b2c12fc	0.0026256433
46	0xbb4d3afe	-0.003131568
47	0x3aea8030	0.0017890986
48	0x3b44df2d	0.003004025
49	0xbb499294	-0.0030757533
50	0xbb0d9015	-0.0021600772
51	0xb94686f0	-0.0001893302
52	0x3aa3669b	0.0012466492
53	0xbb46e281	-0.003034741
54	0xbab07b60	-0.0013464503
55	0xb9f63879	-0.00046962852
56	0xbb280c22	-0.0025641997
57	0xbb551a32	-0.0032516834
58	0xbb455efa	-0.0030116425
59	0x3b408cb6	0.0029380745
60	0xb9e2765f	-0.00043194272
61	0xbb0b08b1	-0.0021214897
62	0x3b34d69c	0.0027593737
63	0x3aea0c21	0.0017856398

weight f4 [64, 10]
0	0x3e69f14d	0.22845955
1	0x3d09dfa4	0.033660546
2	0x3da93a99	0.0826313
3	0x3da8e281	0.08246327
4	0xbe658502	-0.2241402
5	0xbd096105	-0.03353979
6	0xbca9991e	-0.020702895
7	0xbc94e1ea	-0.01817413
8	0x3e38eb14	0.18058425
9	0x3db0ffa1	0.08642507
10	0x3e2eb8f6	0.17062744
11	0xbd881b89	-0.06645877
12	0x3d68d205	0.056840915
13	0xbadc2157	-0.0016794604
14	0xbbf93fca	-0.007606481
15	0xbc574b5d	-0.013140527
16	0x3ead2b07	0.3382189
17	0xbd55376e	-0.052054815
18	0x3c2dd890	0.010610715
19	0xbca7714f	-0.020439772
20	0x3debfcb5	0.115228094
21	0xbddd8892	-0.10817064
22	0xbd955612	-0.07291807
23	0xbec0025d	-0.37501803
24	0xbcefb098	-0.029259011
25	0xbcbdea00	-0.023182869
26	0x3e83d64f	0.25749442
27	0x3ee6cae2	0.45076662
28	0x3d0e911f	0.034806367
29	0x3c9dd181	0.019264938
30	0xbde19c0f	-0.11016094
31	0x3df726bf	0.12067937
32	0x3e7bc2b0	0.24585986
33	0x3c86afa7	0.01644118
34	0x3d1ef15f	0.03880441
35	0xbe8a19f9	-0.2697294
36	0xbe9a94a1	-0.3019152
37	0xbe763622	-0.24044088
38	0xbd0f2781	-0.034949783
39	0x3d74cf4d	0.05976801
40	0xbe0d0881	-0.13772775
41	0xbe9be90e	-0.30451244
42	0xbd61b40f	-0.055103358
43	0x3e88f00c	0.2674564
44	0xbd67cc8a	-0.056591548
45	0x3e957316	0.29189366
46	0xbed3a6c6	-0.41338176
47	0x3e9d58ac	0.30731714
48	0x3e01105e	0.126039
49	0x3e8618fb	0.26190934
50	0xbd029622	-0.03188146
51	0x3ec57538	0.38565993
52	0xbe36c8d3	-0.17850046
53	0xbc304385	-0.010758285
54	0xbea69942	-0.325388
55	0xbe8fce89	-0.2808726
56	0x3e35990b	0.17734163
57	0x3e098b1e	0.13431975
58	0xbea2c6b0	-0.31792212
59	0x3c8685d4	0.016421236
60	0x3e009f29	0.12560715
61	0xbeb3a848	-0.35089326
62	0x3e65f40d	0.22456379
63	0xbe419654	-0.18905002
64	0x3cef6781	0.02922416
65	0x3e524fca	0.2053825
66	0x3d55250c	0.052037284
67	0xbe08128a	-0.13288322
68	0x3d3a309a	0.045456506
69	0xbe306df1	-0.1722944
70	0xbe9cd52f	-0.30631396
71	0x3b85144f	0.004061259
72	0x3e525e90	0.20543885
73	0xbdaa1daf	-0.08306443
74	0x3eaa685c	0.33282745
75	0xbc1d0260	-0.009583086
76	0xbd8d7c7b	-0.069085084
77	0x3c85d936	0.016338926
78	0x3e40d277	0.18830286
79	0xbeb6a02b	-0.35669073
80	0x3edeed62	0.43540484
81	0x3db57b45	0.088614024
82	0xbe0d1a68	-0.13779604
83	0x3e102dd5	0.14079984
84	0xbdd4b798	-0.1038658
85	0x3e13c7b9	0.14431657
86	0xbe05b783	-0.13058285
87	0x3d38daa8	0.0451304
88	0x3e35342c	0.17695683
89	0x3d2a6df0	0.04160875
90	0x3d482186	0.048860095
91	0x3db15712	0.086591855
92	0x3d8bf32d	0.068334915
93	0xbbbf8d10	-0.0058456734
94	0xbe7c7599	-0.24654235
95	0xbdd6d93d	-0.10490654
96	0x3dd54092	0.104127064
97	0xbeaa16d3	-0.33220538
98	0x3e6affc8	0.22949135
99	0x3d805127	0.062654786
100	0xbe1fee0d	-0.15618153
101	0xbec409b8	-0.38288665
102	0x3e3f2def	0.18669866
103	0x3c9f9b22	0.019483153
104	0x3db68ba2	0.089133516
105	0xbdf06899	-0.117387004
106	0xbc1abbcb	-0.009444187
107	0x3cfa35d0	0.030543238
108	0x3ecd138c	0.40053976
109	0xbe1b7074	-0.15179616
110	0x3d90a215	0.07062165
111	0xbe5d8879	-0.21634091
112	0xbea609a9	-0.32429245
113	0x3edfc4e1	0.43704894
114	0x3de1ff69	0.11035044
115	0xbe064e20	-0.1311574
116	0x3e01372e	0.12618706
117	0x3e0d6ff0	0.13812232
118	0x3e0223db	0.1270899
119	0xbe9d8b13	-0.30770168
120	0x3d4dae59	0.0502151
121	0xbccc4631	-0.024935814
122	0x3b5888aa	0.0033040443
123	0x3c603bf9	0.013686174
124	0x3ce32bc0	0.027730823
125	0x3e69bd35	0.22826083
126	0x3dedc3be	0.116096005
127	0x3e8ef245	0.27919212
128	0xbd2f6544	-0.042821184
129	0xbdfc0326	-0.12305288
130	0xbc376b54	-0.011195023
131	0xbca5c5bb	-0.020235887
132	0xbe1d01ff	-0.15332793
133	0x3dd22252	0.10260452
134	0x3d19a31c	0.03750907
135	0x3e9bbe77	0.3041875
136	0xbd6dd51c	-0.058064565
137	0x3dd6332d	0.1045898
138	0x3d9e5bcf	0.07732355
139	0x3e77da91	0.2420447
140	0x3dcc10e5	0.0996416
141	0xbead4c22	-0.33847147
142	0xbe219fc8	-0.15783608
143	0x3dda47d9	0.10658235
144	0x3de43f7f	0.111449234
145	0x3e62669a	0.22109452
146	0x3dc32d78	0.09530157
147	0xbebae622	-0.36503702
148	0x3e0e8dbb	0.13921253
149	0x3b002c65	0.0019557711
150	0xbd118970	-0.03553146
151	0xbe7dd486	-0.24788103
152	0xbd9c332f	-0.0762695
153	0xbe13ade2	-0.144218
154	0x3a45c96b	0.0007544967
155	0xbda1825e	-0.07886194
156	0xbd997aba	-0.07494111
157	0x3e18e99f	0.1493287
158	0x3c50514a	0.012714693
159	0x3db7c79d	0.0897362
160	0x3de7b154	0.113131195
161	0xbd8653f4	-0.065589815
162	0x3d3c7aa6	0.046015404
163	0xbebcda4f	-0.36885306
164	0xbe7615b1	-0.24031712
165	0x3d5a857a	0.05334995
166	0xbe29f4ef	-0.16597341
167	0xbdb7a090	-0.08966172
168	0xbd2decd0	-0.04246217
169	0x3e33d86a	0.17563024
170	0xbda70e4e	-0.08157025
171	0x3c0f74a5	0.008755838
172	0xbd727fc4	-0.059203878
173	0xbe0a4731	-0.1350372
174	0x3def562e	0.11686359
175	0x3e624e8a	0.22100273
176	0xbca6f915	-0.020382443
177	0xbe25cfef	-0.16192602
178	0xbe3cb6eb	-0.18429153
179	0x3e4a4796	0.1975387
180	0xbdae28c8	-0.08503872
181	0x3d75f13c	0.060044512
182	0xbe5f8e6f	-0.21831678
183	0xbdcf949f	-0.10135769
184	0xbe8e0138	-0.27735305
185	0x3d5a4b31	0.053294364
186	0xbe2556fd	-0.16146465
187	0xbdbb0a44	-0.091328174
188	0x3e1f2f39	0.15545358
189	0x3dfa3af7	0.12218278
190	0xbe33e2db	-0.17567007
191	0x3e25d724	0.16195351
192	0xbe1478d7	-0.14499222
193	0xbd8d6e8c	-0.06905851
194	0x3e6b29dd	0.22965188
195	0x3d5035a4	0.050832406
196	0x3dd35057	0.10318058
197	0x3e67708a	0.22601524
198	0x3d15f713	0.03661258
199	0xbe21f1da	-0.15814915
200	0xbd031bde	-0.032008998
201	0xbea24626	-0.31694144
202	0xbe6e952e	-0.23299095
203	0xbe5449d0	-0.20731282
204	0xbe3cfdb3	-0.18456154
205	0xbd0f5b48	-0.034999162
206	0xbdbffbb4	-0.093741804
207	0xbe0c1412	-0.13679531
208	0xbe8be376	-0.27321976
209	0x3c009657	0.007848344
210	0xbedbba91	-0.42915776
211	0xbdac86ae	-0.084241256
212	0xbe2e06e4	-0.16994816
213	0x3dc13b3a	0.09435125
214	0xbdbb7380	-0.09152889
215	0xbe099f33	-0.13439636
216	0xbdce9e50	-0.100887895
217	0x3d19fa86	0.037592433
218	0x3e3ae745	0.18252285
219	0xbe1afd68	-0.1513573
220	0x3c7808e2	0.015138837
221	0xbd82cea4	-0.0638707
222	0xbe552222	-0.20813802
223	0x3ea04cc9	0.31308582
224	0x3e0986ea	0.13430372
225	0x3cb962e1	0.022630157
226	0xbded62c2	-0.11591102
227	0x3bdb5934	0.0066939835
228	0xbeea48ad	-0.45758572
229	0x3d861100	0.06546211
230	0x3d45b0b7	0.04826423
231	0xbe303a48	-0.17209733
232	0x3e43ea48	0.1913234
233	0xbe0e8edc	-0.13921684
234	0x3be329d8	0.0069324784
235	0x3e566a52	0.20938995
236	0x3d61dfaa	0.055144943
237	0x3e85335e	0.26015753
238	0x3c6485bb	0.013947899
239	0x3edabb3d	0.42720976
240	0x3e299d66	0.16563949
241	0xbda025d5	-0.07819716
242	0xbda15a9e	-0.07878612
243	0x3e9eeef3	0.3104168
244	0xbe5e0284	-0.21680647
245	0xbc8b0512	-0.016970191
246	0x3cbbdb31	0.022931667
247	0xbdafe157	-0.08587902
248	0xbd2a4122	-0.04156602
249	0x3d9f1ece	0.077695474
250	0xbe9c2205	-0.30494705
251	0xbe32737c	-0.17426866
252	0x3dac3767	0.08409005
253	0xbde72a80	-0.11287403
254	0xbe4d1b01	-0.20029832
255	0x3c3e4fd4	0.011615712

bias f4 [64]
0	0xbb7830ae	-0.0037870812
1	0x3aa76ce8	0.0012773545
2	0xbb6e9be7	-0.0036408843
3	0x3b7830eb	0.0037870954
4	0xbb73baaf	-0.003719013
5	0xbb727f9b	-0.0037002328
6	0xbb74c5fa	-0.0037349449
7	0xbb6ca96a	-0.003611172
8	0xbb7676d0	-0.003760744
9	0x3b786fba	0.003790839
10	0xbb3254dc	-0.0027211225
11	0xbb7144d7	-0.0036814713
12	0x3b78bce4	0.0037954384
13	0x3b7a8dca	0.0038231486
14	0x3b763ddb	0.003757349
15	0xbb76b423	-0.003764399
16	0x3b71fe3a	0.0036925212
17	0x3b7190f8	0.003686009
18	0xbb76b125	-0.0037642207
19	0x3b764ec0	0.003758356
20	0x3b6d1739	0.0036177172
21	0x3b795847	0.0038047002
22	0xbb7314de	-0.0037091295
23	0xbb738012	-0.0037155193
24	0xbb765c73	-0.0037591725
25	0xbb6a16e9	-0.0035719222
26	0x3b775b89	0.0037743768
27	0xbb75aacd	-0.0037485838
28	0x3b78b339	0.0037948622
29	0xbb75ae8c	-0.0037488071
30	0xbb761702	-0.0037550335
31	0x3b67e35d	0.0035383322
32	0xbb7482e7	-0.003730947
33	0x3b7674c1	0.0037606212
34	0x3b37b5b3	0.0028031885
35	0xbb57e1db	-0.0032941017
36	0x3b76529c	0.003758586
37	0xbb75fa98	-0.0037533399
38	0x3b749831	0.0037322158
39	0xbb3d9b7d	-0.002893179
40	0x3b71fe40	0.0036925226
41	0x3b712c21	0.0036799985
42	0x3b6c7bb4	0.0036084475
43	0xbb70bea6	-0.003673473
44	0xbb3fff4b	-0.0029296454
45	0x3b72ed79	0.0037067814
46	0x3b77efb3	0.003783208
47	0x3b740531	0.003723454
48	0x3b78c21e	0.00379575
49	0xbb7b9e58	-0.003839394
50	0xbb73ae65	-0.0037182805
51	0xbb738d49	-0.003716307
52	0x3b772ea2	0.0037717004
53	0xbb73d6da	-0.003720692
54	0x3b6c96be	0.0036100592
55	0x3b626eb4	0.0034550847
56	0x3b761cd5	0.0037553806
57	0x3b74f43d	0.0037377023
58	0xbb69b2f4	-0.0035659643
59	0xbb773a73	-0.0037724047
60	0x3b5c1442	0.003358141
61	0x3b6afde2	0.0035856892
62	0xbb728622	-0.003700622
63	0x3b4dbbec	0.0031392528

weight f4 [64, 64]
0	0x3e1b9d00	0.1519661
1	0xbd61ee6b	-0.055159014
2	0xbe768e2d	-0.24077673
3	0xbccfdb7d	-0.025373215
4	0x3e31a341	0.17347433
5	0xbda5d599	-0.08097381
6	0x3e334f6d	0.17510767
7	0xbdf4b68c	-0.119488806
8	0xbe89bd89	-0.26902416
9	0x3d0bc4a5	0.03412308
10	0xbd98682a	-0.07441743
11	0x3cd2b1c4	0.02571953
12	0xbe2b1d6b	-0.16710441
13	0x3d9c0357	0.076178245
14	0xbd82fd10	-0.06395924
15	0x3cc77e82	0.024352316
16	0x3d5fd87f	0.054649826
17	0x3ed47c5b	0.41501126
18	0xbe4bc550	-0.19899487
19	0xbde338be	-0.11094807
20	0xbd0cd161	-0.034379367
21	0xbe1c9d83	-0.15294461
22	0x3e61609b	0.22009508
23	0xbc42e731	-0.011895941
24	0xbe0ac33b	-0.13551037
25	0xbde7a83d	-0.11311386
26	0x3d2dd490	0.042439044
27	0xbe5ce9ff	-0.21573637
28	0x3d54bc00	0.051937103
29	0x3e1d6a54	0.15372592
30	0x3ddd8d99	0.10818023
31	0xbed92cff	-0.42417142
32	0x3df9f669	0.12205202
33	0xbe1a096a	-0.15042654
34	0x3e00677c	0.12539476
35	0xbe2b3b26	-0.16721782
36	0x3e12f6ed	0.14352007
37	0xbe8b1d22	-0.27170664
38	0x3c5eb7c2	0.013593616
39	0x3de4485c	0.11146614
40	0x3e096867	0.13418733
41	0x3e5c0f0b	0.21490113
42	0x3eabb75f	0.3353834
43	0xbeaf4f0c	-0.34239995
44	0x3e871233	0.26381072
45	0x3d28c1ee	0.04120057
46	0x3e273412	0.16328457
47	0x3e7117ac	0.23544186
48	0xbd27a70f	-0.040930804
49	0xbe7a7122	-0.24457219
50	0xbd0ff42e	-0.035144977
51	0x3e151a43	0.145608
52	0x3e0b700d	0.13616963
53	0xbd87bb52	-0.066275254
54	0xbe90923c	-0.28236568
55	0xbd8c7f9e	-0.068602785
56	0xbde1b576	-0.11020939
57	0x3e39e785	0.18154724
58	0x3ca367d7	0.019946976
59	0xbe8d1d90	-0.27561617
60	0xbddaa433	-0.1067585
61	0xbec0be8b	-0.37645373
62	0x3caffbdc	0.0214824
63	0xbe174f23	-0.14776282
64	0x3e486ef6	0.19573578
65	0x3da26624	0.07929638
66	0x3d9f28fe	0.077714905
67	0xbeec98c7	-0.4621031
68	0x3e5288a9	0.20559944
69	0x3f03ad91	0.51436716
70	0xbcc378fa	-0.023861397
71	0x3e534681	0.20632364
72	0x3e8b3348	0.27187562
73	0x3eccbeba	0.39989263
74	0x3d3a63dd	0.045505393
75	0x3e552b36	0.20817265
76	0x3e17ba98	0.14817274
77	0x3d251056	0.040298782
78	0x3d031c4f	0.03200942
79	0xbe360ca4	-0.1777826
80	0x3da40961	0.080096014
81	0x3eab7e62	0.3349486
82	0x3d76a795	0.060218412
83	0xbe6c49c2	-0.23075011
84	0x3e27350f	0.16328834
85	0x3c9784db	0.018495968
86	0x3e536e0a	0.20647445
87	0xbc89d6b7	-0.016826017
88	0x3c154ebc	0.00911301
89	0xbe991cf0	-0.2990489
90	0x3da83533	0.08213272
91	0xbdf56026	-0.119812295
92	0x3e737610	0.23775506
93	0xbe0958b1	-0.1341274
94	0xbe30a9f6	-0.17252335
95	0xbdd5987f	-0.10429477
96	0xbeb3ab98	-0.35091853
97	0xbc29fd39	-0.010375314
98	0xbd7ef41e	-0.062244527
99	0x3db25995	0.08708493
100	0x3bb648ac	0.0055628624
101	0xbd5c5ea2	-0.053801186
102	0x3d339672	0.043844648
103	0xbe3045bc	-0.17214102
104	0xbe0c4f96	-0.13702235
105	0x3d5eb7fe	0.054374687
106	0xbd81f696	-0.06345861
107	0x3d994c3d	0.074852444
108	0x3e174597	0.1477264
109	0x3dd8af64	0.10580328
110	0xbe17d033	-0.14825515
111	0x3d3575e5	0.044301886
112	0x39306e63	0.0001682579
113	0x3d39ae48	0.045332223
114	0xbe373ad7	-0.1789354
115	0xbd2c80ac	-0.0421149
116	0x3e53dc05	0.206894
117	0x3d02c4db	0.031926017
118	0x3e017244	0.12641245
119	0xbde21ce5	-0.110406674
120	0xbe38bb3b	-0.18040173
121	0xbe54a300	-0.20765305
122	0x3e56770d	0.20943852
123	0x3e644d1b	0.22295038
124	0xbe2f92b8	-0.17145813
125	0xbd03cd7f	-0.0321784
126	0x3bb81f52	0.005618968
127	0x3def58d6	0.11686866
128	0xbdab6075	-0.08368007
129	0xbdc46bd7	-0.09590881
130	0x3e36a549	0.17836489
131	0x3e8bbf3f	0.27294347
132	0xbe9fc5aa	-0.31205493
133	0xbe24d1d9	-0.16095676
134	0x3c6b18e5	0.014349197
135	0x3e3f4eee	0.18682453
136	0x3c77c74e	0.0151232015
137	0x3e2f6006	0.17126474
138	0xbe2c74e2	-0.16841462
139	0x3eda3107	0.4261553
140	0xbe8a7522	-0.2704249
141	0xbbee265b	-0.007267756
142	0xbd809793	-0.062789105
143	0xbcaf1394	-0.02137164
144	0x3dc11ff3	0.09429922
145	0x3e5d77a5	0.21627672
146	0xbe171de8	-0.14757502
147	0x3d9598a1	0.07304502
148	0xbdaf920c	-0.08572778
149	0xbe5e6046	-0.21716413
150	0xbe861181	-0.2618523
151	0xbe49ebd9	-0.19718875
152	0xbb9e6ad6	-0.004834513
153	0x3e525351	0.20539595
154	0xbccdbf6e	-0.025115695
155	0xbc05f7ff	-0.008176803
156	0x3d4e9e49	0.05044392
157	0xbdfb2ec8	-0.12264782
158	0xbe289010	-0.16461205
159	0x3e0e2c37	0.13884054
160	0xbdf47ad5	-0.11937491
161	0xbe2be66b	-0.16787116
162	0xbcf2b809	-0.02962877
163	0x3e5dfe23	0.21678977
164	0x3e8ea284	0.27858365
165	0xbc171f5b	-0.009223784
166	0x3bfce1ef	0.007717363
167	0xbf12d838	-0.57361174
168	0xbdea7033	-0.114471816
169	0xbe0bd813	-0.13656645
170	0xbdc80489	-0.0976649
171	0x3e6e664b	0.23281209
172	0x3e8a11d2	0.2696672
173	0x3a252ca4	0.00063009025
174	0x3e61cde7	0.22051202
175	0xbe129e10	-0.14318109
176	0xbe0b49be	-0.13602349
177	0xbeaae0ec	-0.33374727
178	0xbc156b16	-0.00911977
179	0xbe1b812b	-0.15185992
180	0x3d9f7bde	0.07787298
181	0x3daddd9b	0.084895335
182	0xbcd4c76f	-0.025974004
183	0xbe0b6c49	-0.13615526
184	0xbddbddec	-0.107356876
185	0x3e55cfb9	0.20880021
186	0xbd817c34	-0.06322518
187	0xbe4d29bd	-0.20035453
188	0xbe2671b1	-0.16254307
189	0x3d12c6df	0.03583419
190	0x3b52bd05	0.0032156121
191	0xbd0fb2d9	-0.03508267
192	0x3d5e3bca	0.054256238
193	0x3d2ed60d	0.042684603
194	0x3d19c03c	0.037536845
195	0xbeca763e	-0.39543337
196	0x3d5500ed	0.052002836
197	0x3b6784a2	0.0035326858
198	0x3e4ae033	0.19812088
199	0xbe2fb90c	-0.17160434
200	0x3d801ad6	0.062551185
201	0xbe4433e3	-0.19160418
202	0x3d82785b	0.06370612
203	0x3e044488	0.12916768
204	0xbd914a5b	-0.0709426
205	0x3de54a3c	0.111958
206	0xbc89889c	-0.016788773
207	0xbc82732d	-0.01592406
208	0xbe3a90f4	-0.18219358
209	0xbe47a99c	-0.19498295
210	0x3e0acdf7	0.13555132
211	0xbe98a342	-0.29812056
212	0xbec93424	-0.39297593
213	0xbe2df09b	-0.16986315
214	0xbd1e22ac	-0.038607284
215	0x3e1a8f9e	0.15093848
216	0xbe0548c5	-0.1301604
217	0xbe37e148	-0.17957032
218	0x3cbef3e7	0.023309661
219	0x3eb7f6ab	0.3593038
220	0xbdf2335f	-0.118262045
221	0x3d93b49f	0.07212185
222	0x3dbcd091	0.092194684
223	0xbe992e43	-0.29918107
224	0x3e0966bc	0.13418096
225	0xbd8e5529	-0.06949837
226	0x3c918eec	0.017768346
227	0x3e5218a1	0.20517208
228	0x3c439f5f	0.0119398525
229	0x3e66ed08	0.22551358
230	0xbdccf139	-0.10006947
231	0xbea34b74	-0.31893504
232	0x3e80dd7c	0.2516898
233	0xbebe4b6d	-0.3716692
234	0xbdc49afe	-0.09599875
235	0xbe827283	-0.2547799
236	0x3ed7875d	0.4209546
237	0x3e19c9ee	0.15018436
238	0x3ca3a9cc	0.019978426
239	0xbdcc22b5	-0.09967557
240	0xbca899c7	-0.02058114
241	0x3de293e0	0.11063361
242	0x3e0edc6d	0.13951273
243	0x3e50cb82	0.20390132
244	0xbe4a7813	-0.19772367
245	0x3de49552	0.11161293
246	0x3ddb68f8	0.107133806
247	0x3d1a94ad	0.037739445
248	0xbe1c2fab	-0.15252559
249	0x3e664e60	0.22490835
250	0x3da53a40	0.08067751
251	0x3d7d1700	0.061789513
252	0x3d8a4986	0.06752305
253	0x3e5d76e7	0.21627389
254	0x3dca08d0	0.09864962
255	0x3d7cb055	0.0616916

bias f4 [64]
0	0x3b765297	0.0037585848
1	0x3b70b65e	0.0036729793
2	0x3b754916	0.0037427596
3	0xbb773512	-0.0037720841
4	0xbb75df91	-0.003751729
5	0xbb6ed179	-0.0036440773
6	0xbb72ea24	-0.0037065828
7	0x3b776ec7	0.0037755237
8	0xbb75a13f	-0.0037480143
9	0xbb72e0e0	-0.0037060305
10	0x3b6c48df	0.0036054177
11	0xbb73f038	-0.003722204
12	0x3b71d6a8	0.0036901627
13	0x3b7871c6	0.003790961
14	0x3b77c5df	0.003780715
15	0xbb7326a1	-0.0037101882
16	0xbb73bef7	-0.0037192681
17	0x3b73f3e1	0.003722422
18	0x3b74276d	0.0037254945
19	0xbb710a45	-0.0036779803
20	0x3b712986	0.0036798432
21	0xbb71252e	-0.0036795842
22	0xbb767373	-0.0037605434
23	0x3b777c62	0.0037763347
24	0xbb70bb01	-0.0036732557
25	0x3b6e1526	0.0036328523
26	0x3b7302fa	0.0037080632
27	0xbb727d02	-0.003700078
28	0xbb626216	-0.0034543327
29	0x3b75fdee	0.0037535387
30	0xbb764e98	-0.0037583467
31	0x3b739833	0.0037169575
32	0x3b719c12	0.0036866707
33	0xbb72f325	-0.0037071195
34	0x3b72601d	0.0036983558
35	0xbb712e45	-0.003680126
36	0x3b7649a4	0.0037580514
37	0x3b711764	0.0036787624
38	0x3b724e62	0.003697299
39	0xbb725250	-0.0036975332
40	0xbb742779	-0.0037254973
41	0xbb779abf	-0.0037781445
42	0x3b733992	0.0037113172
43	0xbb71141a	-0.0036785663
44	0xbb6e48d3	-0.0036359325
45	0xbb72c54e	-0.0037043872
46	0x3b74f8cb	0.0037379737
47	0xbb79bb9f	-0.0038106216
48	0x3b70ce74	0.003674415
49	0xbb75810a	-0.0037460946
50	0xbb757f60	-0.0037459955
51	0x3b7274c5	0.003699587
52	0xbb27e6a9	-0.0025619662
53	0xbb72797d	-0.0036998682
54	0xbb77fc7a	-0.0037839697
55	0x3b70bd9f	0.0036734117
56	0x3b7631b6	0.003756625
57	0x3b73178b	0.003709289
58	0xbb6eba76	-0.0036427057
59	0x3b734773	0.0037121444
60	0xbb6ece14	-0.003643875
61	0xbb75da31	-0.0037514085
62	0xbb720fc0	-0.0036935657
63	0x3b74c2cd	0.0037347556

weight f4 [1, 64]
0	0xbe5a7bed	-0.21336336
1	0xbcdfae7a	-0.027304877
2	0xbe60754e	-0.21919748
3	0x3eec0527	0.4609768
4	0x3ddf0eba	0.10891481
5	0x3c939c5c	0.018018894
6	0x3e0a1061	0.1348281
7	0xbe3cbb0b	-0.18430726
8	0x3e7176a9	0.23580422
9	0x3e0ea134	0.13928682
10	0xbdf8bbb7	-0.12145179
11	0x3d0f44d4	0.03497775
12	0xbd95b936	-0.07310717
13	0xbe5eccfd	-0.21757884
14	0xbe427f3f	-0.18993853
15	0x3ebecaf6	0.37264222
16	0x3eb3acc0	0.35092735
17	0xbdbc3fae	-0.091918334
18	0xbe87b4f7	-0.26505253
19	0x3ccb8db1	0.024847837
20	0xbe54568b	-0.20736139
21	0x3b957eb9	0.0045622257
22	0x3dc3e150	0.09564459
23	0xbdec1101	-0.11526681
24	0x3e28e65a	0.16494122
25	0xbd9c33ad	-0.07627044
26	0xbe38c255	-0.18042882
27	0x3d2f5898	0.0428091
28	0x3aae2651	0.0013286566
29	0xbe046eb3	-0.12932853
30	0x3e4fb7a9	0.20284905
31	0xbebf0bbd	-0.37313643
32	0xbd2f7e67	-0.042845156
33	0x3db97c34	0.09056893
34	0xbd238138	-0.039918154
35	0x3d022dc6	0.031781934
36	0xbea08506	-0.3135149
37	0xbe2a4335	-0.166272
38	0xbd250425	-0.040287156
39	0x3d19417b	0.037415963
40	0x3da91593	0.08256068
41	0x3e4dbf10	0.20092416
42	0xbdea3f12	-0.11437811
43	0x3d4e5f30	0.050383747
44	0x3bb435a1	0.005499557
45	0x3d67b2e0	0.056567073
46	0xbdf1bb16	-0.11803262
47	0x3d1929e7	0.037393477
48	0xbd5793b2	-0.052631088
49	0x3eaffc9d	0.34372416
50	0x3c6e5dac	0.0145487
51	0xbc925d42	-0.017866734
52	0x399437c4	0.00028270308
53	0x3dc8ad2b	0.09798654
54	0x3e3f12b9	0.18659486
55	0xbe1da368	-0.15394366
56	0xbde3fac7	-0.11131816
57	0xbd9f1e70	-0.07769477
58	0x3d2d107c	0.04225205
59	0xbde026b5	-0.10944883
60	0x3db1207d	0.08648775
61	0x3e7c12bc	0.24616522
62	0x3eaf0aba	0.3418787
63	0xbec769d0	-0.38947916

weight f4 [4, 64]
0	0xbd655af1	-0.05599493
1	0xbd6ad5b1	-0.0573327
2	0xbe2044de	-0.15651271
3	0x3e834b15	0.2564322
4	0xbda4014e	-0.08008061
5	0x3bbff0af	0.005857549
6	0x3e16342c	0.1466834
7	0xbd91a54e	-0.071116075
8	0x3c87f103	0.016594416
9	0xbe54fe60	-0.20800161
10	0xbd1e411e	-0.03863632
11	0xbd8549b7	-0.065082006
12	0xbea2006a	-0.3164094
13	0xbe503c96	-0.20335612
14	0xbe33071c	-0.17483181
15	0x3d2b7b27	0.041865494
16	0xbe9839d4	-0.2973162
17	0xbe1e41fd	-0.1545486
18	0x3e1672b3	0.14692192
19	0x3c747176	0.014919629
20	0x3b11a943	0.0022226132
21	0xbd897631	-0.06711996
22	0x3e0be80e	0.1366274
23	0x3c2a00ec	0.010376196
24	0xbc4f37d3	-0.012647587
25	0x3d1c21e7	0.03811827
26	0x3d6b15ce	0.05739384
27	0x3df40587	0.11915117
28	0xbba9382f	-0.0051641683
29	0x3d1cdf24	0.03829874
30	0x3dadff3d	0.084959485
31	0xbdc04996	-0.093890354
32	0xbd0d3035	-0.034469802
33	0xbd434838	-0.047676295
34	0x3e61559d	0.22005315
35	0x3d0d3586	0.034474872
36	0xbe30b09c	-0.17254871
37	0xbd2ef464	-0.042713538
38	0x3e02aa10	0.12760186
39	0x3d1088fd	0.035286892
40	0xbde8e29d	-0.11371348
41	0xbe43bbc9	-0.19114603
42	0xbc87565d	-0.016520673
43	0x3b1d78ed	0.0024028376
44	0x3e94afa3	0.2904025
45	0xbdb009e8	-0.085956395
46	0xbcfd41e2	-0.030915204
47	0x3df017af	0.11723267
48	0x3d8beb8f	0.068320386
49	0x3e710922	0.2353864
50	0xbdc52418	-0.09626025
51	0x3dd1738a	0.102271155
52	0x3d9d2bbe	0.07674359
53	0x3e5a4a79	0.21317472
54	0x3d24f5ff	0.040273663
55	0xbdd8a416	-0.10578172
56	0x3db03e8f	0.08605682
57	0x3b91825d	0.0044405893
58	0x3e303d11	0.17210795
59	0xbcffab26	-0.03120954
60	0x3d228cc9	0.039685044
61	0xbd4bf695	-0.049795706
62	0xbda27ce5	-0.07933978
63	0xbd4f3da9	-0.050595913
64	0x3d05a0cf	0.032624062
65	0x3d8e9ff3	0.06964102
66	0xbd2894e9	-0.041157637
67	0x3e3ceed2	0.18450478
68	0xbd607ce6	-0.054806612
69	0xbe74e978	-0.23917186
70	0xbd63609f	-0.055512067
71	0xbe2a959d	-0.16658635
72	0x3d6cb6da	0.05779157
73	0xbd327440	-0.043567896
74	0x3e200a1d	0.15628858
75	0xbd22ce31	-0.03974742
76	0x3d62a068	0.055328757
77	0xbda01d82	-0.07818128
78	0x3cd1c71b	0.025607636
79	0xbd05a388	-0.03262666
80	0x3dd3abd8	0.10335511
81	0x3cee6211	0.029099496
82	0xbdd07d6c	-0.10180172
83	0xbe212d1b	-0.15739863
84	0xbca359a6	-0.019940209
85	0xbd2600df	-0.040528174
86	0x3c174ae4	0.009234164
87	0x3e1ae74a	0.15127292
88	0xbb9d6041	-0.004802734
89	0x3d9b57c4	0.07585099
90	0xbdf5016b	-0.11963161
91	0x3d1e2ed2	0.03861887
92	0xbd7c99cb	-0.061670106
93	0xbea51cda	-0.32248574
94	0xbe1277bc	-0.14303488
95	0x3e6093fc	0.21931452
96	0x3c9d3027	0.019188
97	0x3e13070b	0.14358155
98	0x3d8d8048	0.06909233
99	0xbe21dba5	-0.15806444
100	0xbd2bd03f	-0.041946646
101	0x3d266452	0.040623017
102	0xbd0aa1c5	-0.03384568
103	0xbe419033	-0.18902664
104	0xbe3392a8	-0.17536414
105	0x3da712f5	0.08157913
106	0xbdcf3b0f	-0.101186864
107	0x3d714d1d	0.05891143
108	0x3dbc6260	0.09198451
109	0x3da01d6a	0.0781811
110	0x3e059343	0.13044457
111	0xbc27477a	-0.010209912
112	0xbde33e90	-0.11095917
113	0xbb428586	-0.0029681637
114	0xbdf9f1c3	-0.122043155
115	0x3dc40d2b	0.09572824
116	0xbda0338f	-0.07822334
117	0xbda313a7	-0.07962733
118	0x3e195393	0.14973287
119	0x3cbfa548	0.023394242
120	0x3e1dca1f	0.15409134
121	0xbcacdfa9	-0.021102743
122	0xbe10c673	-0.14138202
123	0x3d829e7c	0.06377885
124	0x3e81b62f	0.25334308
125	0xbda9de66	-0.08294372
126	0xbd3bef3e	-0.045882456
127	0xbedc66bd	-0.43047133
128	0x3e0393c7	0.12849341
129	0x3d9b3e99	0.07580299
130	0xbdbf019e	-0.0932648
131	0x3d204d8a	0.039136447
132	0x3dc20176	0.09472935
133	0x3d686995	0.056741316
134	0xbd43ab12	-0.047770567
135	0x3d516a97	0.051127043
136	0x3d472af1	0.048624936
137	0x3da09e60	0.07842708
138	0x3e3562e6	0.17713508
139	0x3e5ccaec	0.21561784
140	0x3d2da4fb	0.042393666
141	0x3ceb91fb	0.028756132
142	0x3d3522db	0.044222694
143	0x3c1a205a	0.009407127
144	0xbe38a1d2	-0.1803048
145	0xbd25ae9a	-0.040449716
146	0xbc0a31e2	-0.008434745
147	0x3d87cdf2	0.06631078
148	0xbcfd1e46	-0.030898225
149	0x3c049995	0.008093257
150	0x3e62683a	0.22110072
151	0xbd966aeb	-0.07344612
152	0xbd8ac446	-0.067757174
153	0xbea4065f	-0.3203611
154	0x3e4e408d	0.20141812
155	0x3ca79a3e	0.02045929
156	0xbe641283	-0.22272687
157	0x3db38f94	0.0876762
158	0xbd9962b2	-0.07489528
159	0xbd5b9e3a	-0.053617693
160	0x3c1b68cd	0.009485436
161	0x3c31c557	0.010850272
162	0xbe29b6d4	-0.1657365
163	0x3d80c3eb	0.062873684
164	0xbd8e687b	-0.06953522
165	0x3dc13cd2	0.09435429
166	0x3ea81c32	0.3283401
167	0xbd736821	-0.059425477
168	0xbe06e9c9	-0.1317512
169	0xbca97c5d	-0.020689184
170	0xbb5c5bed	-0.0033624128
171	0xbc01abfa	-0.007914538
172	0xbc781c1f	-0.015143423
173	0x3d1d11df	0.03834712
174	0xbc42c26d	-0.011887175
175	0xbe79e3b0	-0.24403262
176	0xbdb4167f	-0.08793353
177	0xbd704e28	-0.058668286
178	0x3e3fc7f1	0.18728615
179	0x3da4bbd7	0.0804364
180	0xbe1f8536	-0.1557816
181	0xbcf18e56	-0.029486816
182	0x3c2bdf67	0.010490275
183	0x3e0459ef	0.12924932
184	0xbb98dfc9	-0.004665349
185	0x3c54cfb3	0.0129889725
186	0x3e1d5ef6	0.15368256
187	0xbe59a37d	-0.21253772
188	0xbc9cd083	-0.019142395
189	0x3e83d969	0.25751808
190	0xbd961e75	-0.07330028
191	0xbe8e9f1c	-0.27855766
192	0x3db5b613	0.088726185
193	0xbd41fc58	-0.047359794
194	0x3bdebb83	0.0067972555
195	0x3df09859	0.11747808
196	0x3c166cd2	0.009181218
197	0x3e377925	0.17917307
198	0xbd9786e7	-0.073987775
199	0x3cd4dba6	0.025983643
200	0x3d40c939	0.0470669
201	0xbdfedeb0	-0.12444818
202	0x3e036793	0.12832479
203	0x3d699fa3	0.057037007
204	0xbdfe0603	-0.124034904
205	0xbdb0bc63	-0.08629682
206	0xbcb3a526	-0.021929335
207	0x3d245503	0.040120136
208	0x3da1628e	0.07880126
209	0xbe3bb51e	-0.1833081
210	0xbe71f464	-0.23628384
211	0xbe87e6e0	-0.2654333
212	0x3d791ad6	0.06081661
213	0xbe288698	-0.16457593
214	0x3db082ad	0.086186744
215	0x3d602160	0.05471933
216	0x3dbd4603	0.09241869
217	0x3cd22a89	0.025655048
218	0xbe2708af	-0.16311906
219	0xbd084e5a	-0.033277847
220	0x3dc5ad45	0.09652189
221	0xbe8872a8	-0.26649976
222	0xbd11981e	-0.03554546
223	0xbd21769b	-0.03941975
224	0xbe46534e	-0.19367716
225	0xbdd3a45c	-0.103340834
226	0xbe23008f	-0.15918182
227	0xbe07d31b	-0.13264124
228	0x3cc1795a	0.023617435
229	0x3d3f3cfa	0.04668901
230	0x3e250afd	0.16117473
231	0x3ae9c97f	0.001783654
232	0xbd6c92cf	-0.057757195
233	0xbe18ed9e	-0.14934394
234	0x3c0667f1	0.0082034925
235	0xbe0f0709	-0.13967527
236	0xbc845f66	-0.01615877
237	0x3dc5ff48	0.09667832
238	0xbe35e495	-0.17762978
239	0x3c9da2c6	0.019242655
240	0x3eb01f3b	0.34398827
241	0xbeb2131d	-0.34780207
242	0xbb9a75fd	-0.0047137723
243	0x3db28219	0.087162204
244	0xbd073054	-0.033005074
245	0xbdaccb74	-0.08437243
246	0x3c8fad25	0.017538616
247	0x3bcbc5e7	0.00621866
248	0xbe3728a7	-0.17886601
249	0xbd648c37	-0.05579778
250	0x3dfce7ff	0.12348937
251	0x3cf979d7	0.030453606
252	0xbc822cfd	-0.015890593
253	0xb52bb4c0	-6.396549e-07
254	0x3cd819e8	0.02637954
255	0x3e34d2e6	0.17658576

bias f4 [4]
0	0xbb14803a	-0.0022659437
1	0x3a2c765e	0.00065789174
2	0xbb2bd2af	-0.0026218107
3	0x3b3a4086	0.0028419807

_bias f4 [4, 1]
0	0x3a80c50f	0.0009824353
1	0x3a2f2fc0	0.00066828355
2	0x3a4a21fa	0.00077107514
3	0x3a37d036	0.0007011922
